…
Requirement already satisfied: certifi>=2017.4.17 in c:\users\aria\appdata\local\packages\pythonsoftwarefoundation.python.3.11_qbz5n2kfra8p0\localcache\local-packages\python311\site-packages (from requests->huggingface_hub->timm) (2024.2.2)
Note: you may need to restart the kernel to use updated packages.
Requirement already satisfied: torchsummary in c:\users\aria\appdata\local\packages\pythonsoftwarefoundation.python.3.11_qbz5n2kfra8p0\localcache\local-packages\python311\site-packages (1.5.1)
Note: you may need to restart the kernel to use updated packages.
----------------------------------------------------------------
        Layer (type)               Output Shape         Param #
================================================================
            Conv2d-1         [-1, 96, 144, 144]           2,592
          Identity-2         [-1, 96, 144, 144]               0
              SiLU-3         [-1, 96, 144, 144]               0
    BatchNormAct2d-4         [-1, 96, 144, 144]             192
       ConvNormAct-5         [-1, 96, 144, 144]               0
            Conv2d-6         [-1, 96, 144, 144]             864
          Identity-7         [-1, 96, 144, 144]               0
          Identity-8         [-1, 96, 144, 144]               0
    BatchNormAct2d-9         [-1, 96, 144, 144]             192
      ConvNormAct-10         [-1, 96, 144, 144]               0
            ReLU6-11         [-1, 96, 144, 144]               0
           Conv2d-12         [-1, 48, 144, 144]           4,608
         Identity-13         [-1, 48, 144, 144]               0
         Identity-14         [-1, 48, 144, 144]               0
   BatchNormAct2d-15         [-1, 48, 144, 144]              96
      ConvNormAct-16         [-1, 48, 144, 144]               0
 LinearBottleneck-17         [-1, 48, 144, 144]               0
           Conv2d-18        [-1, 288, 144, 144]          13,824
         Identity-19        [-1, 288, 144, 144]               0
             SiLU-20        [-1, 288, 144, 144]               0
   BatchNormAct2d-21        [-1, 288, 144, 144]             576
      ConvNormAct-22        [-1, 288, 144, 144]               0
           Conv2d-23          [-1, 288, 72, 72]           2,592
         Identity-24          [-1, 288, 72, 72]               0
         Identity-25          [-1, 288, 72, 72]               0
   BatchNormAct2d-26          [-1, 288, 72, 72]             576
      ConvNormAct-27          [-1, 288, 72, 72]               0
            ReLU6-28          [-1, 288, 72, 72]               0
           Conv2d-29           [-1, 80, 72, 72]          23,040
         Identity-30           [-1, 80, 72, 72]               0
         Identity-31           [-1, 80, 72, 72]               0
   BatchNormAct2d-32           [-1, 80, 72, 72]             160
      ConvNormAct-33           [-1, 80, 72, 72]               0
 LinearBottleneck-34           [-1, 80, 72, 72]               0
           Conv2d-35          [-1, 480, 72, 72]          38,400
         Identity-36          [-1, 480, 72, 72]               0
             SiLU-37          [-1, 480, 72, 72]               0
   BatchNormAct2d-38          [-1, 480, 72, 72]             960
      ConvNormAct-39          [-1, 480, 72, 72]               0
           Conv2d-40          [-1, 480, 72, 72]           4,320
         Identity-41          [-1, 480, 72, 72]               0
         Identity-42          [-1, 480, 72, 72]               0
   BatchNormAct2d-43          [-1, 480, 72, 72]             960
      ConvNormAct-44          [-1, 480, 72, 72]               0
            ReLU6-45          [-1, 480, 72, 72]               0
           Conv2d-46          [-1, 112, 72, 72]          53,760
         Identity-47          [-1, 112, 72, 72]               0
         Identity-48          [-1, 112, 72, 72]               0
   BatchNormAct2d-49          [-1, 112, 72, 72]             224
      ConvNormAct-50          [-1, 112, 72, 72]               0
 LinearBottleneck-51          [-1, 112, 72, 72]               0
           Conv2d-52          [-1, 672, 72, 72]          75,264
         Identity-53          [-1, 672, 72, 72]               0
             SiLU-54          [-1, 672, 72, 72]               0
   BatchNormAct2d-55          [-1, 672, 72, 72]           1,344
      ConvNormAct-56          [-1, 672, 72, 72]               0
           Conv2d-57          [-1, 672, 36, 36]           6,048
         Identity-58          [-1, 672, 36, 36]               0
         Identity-59          [-1, 672, 36, 36]               0
   BatchNormAct2d-60          [-1, 672, 36, 36]           1,344
      ConvNormAct-61          [-1, 672, 36, 36]               0
           Conv2d-62             [-1, 64, 1, 1]          43,072
      BatchNorm2d-63             [-1, 64, 1, 1]             128
             ReLU-64             [-1, 64, 1, 1]               0
           Conv2d-65            [-1, 672, 1, 1]          43,680
          Sigmoid-66            [-1, 672, 1, 1]               0
         SEModule-67          [-1, 672, 36, 36]               0
            ReLU6-68          [-1, 672, 36, 36]               0
           Conv2d-69          [-1, 144, 36, 36]          96,768
         Identity-70          [-1, 144, 36, 36]               0
         Identity-71          [-1, 144, 36, 36]               0
   BatchNormAct2d-72          [-1, 144, 36, 36]             288
      ConvNormAct-73          [-1, 144, 36, 36]               0
 LinearBottleneck-74          [-1, 144, 36, 36]               0
           Conv2d-75          [-1, 864, 36, 36]         124,416
         Identity-76          [-1, 864, 36, 36]               0
             SiLU-77          [-1, 864, 36, 36]               0
   BatchNormAct2d-78          [-1, 864, 36, 36]           1,728
      ConvNormAct-79          [-1, 864, 36, 36]               0
           Conv2d-80          [-1, 864, 36, 36]           7,776
         Identity-81          [-1, 864, 36, 36]               0
         Identity-82          [-1, 864, 36, 36]               0
   BatchNormAct2d-83          [-1, 864, 36, 36]           1,728
      ConvNormAct-84          [-1, 864, 36, 36]               0
           Conv2d-85             [-1, 80, 1, 1]          69,200
      BatchNorm2d-86             [-1, 80, 1, 1]             160
             ReLU-87             [-1, 80, 1, 1]               0
           Conv2d-88            [-1, 864, 1, 1]          69,984
          Sigmoid-89            [-1, 864, 1, 1]               0
         SEModule-90          [-1, 864, 36, 36]               0
            ReLU6-91          [-1, 864, 36, 36]               0
           Conv2d-92          [-1, 176, 36, 36]         152,064
         Identity-93          [-1, 176, 36, 36]               0
         Identity-94          [-1, 176, 36, 36]               0
   BatchNormAct2d-95          [-1, 176, 36, 36]             352
      ConvNormAct-96          [-1, 176, 36, 36]               0
 LinearBottleneck-97          [-1, 176, 36, 36]               0
           Conv2d-98         [-1, 1056, 36, 36]         185,856
         Identity-99         [-1, 1056, 36, 36]               0
            SiLU-100         [-1, 1056, 36, 36]               0
  BatchNormAct2d-101         [-1, 1056, 36, 36]           2,112
     ConvNormAct-102         [-1, 1056, 36, 36]               0
          Conv2d-103         [-1, 1056, 18, 18]           9,504
        Identity-104         [-1, 1056, 18, 18]               0
        Identity-105         [-1, 1056, 18, 18]               0
  BatchNormAct2d-106         [-1, 1056, 18, 18]           2,112
     ConvNormAct-107         [-1, 1056, 18, 18]               0
          Conv2d-108             [-1, 96, 1, 1]         101,472
     BatchNorm2d-109             [-1, 96, 1, 1]             192
            ReLU-110             [-1, 96, 1, 1]               0
          Conv2d-111           [-1, 1056, 1, 1]         102,432
         Sigmoid-112           [-1, 1056, 1, 1]               0
        SEModule-113         [-1, 1056, 18, 18]               0
           ReLU6-114         [-1, 1056, 18, 18]               0
          Conv2d-115          [-1, 224, 18, 18]         236,544
        Identity-116          [-1, 224, 18, 18]               0
        Identity-117          [-1, 224, 18, 18]               0
  BatchNormAct2d-118          [-1, 224, 18, 18]             448
     ConvNormAct-119          [-1, 224, 18, 18]               0
LinearBottleneck-120          [-1, 224, 18, 18]               0
          Conv2d-121         [-1, 1344, 18, 18]         301,056
        Identity-122         [-1, 1344, 18, 18]               0
            SiLU-123         [-1, 1344, 18, 18]               0
  BatchNormAct2d-124         [-1, 1344, 18, 18]           2,688
     ConvNormAct-125         [-1, 1344, 18, 18]               0
          Conv2d-126         [-1, 1344, 18, 18]          12,096
        Identity-127         [-1, 1344, 18, 18]               0
        Identity-128         [-1, 1344, 18, 18]               0
  BatchNormAct2d-129         [-1, 1344, 18, 18]           2,688
     ConvNormAct-130         [-1, 1344, 18, 18]               0
          Conv2d-131            [-1, 112, 1, 1]         150,640
     BatchNorm2d-132            [-1, 112, 1, 1]             224
            ReLU-133            [-1, 112, 1, 1]               0
          Conv2d-134           [-1, 1344, 1, 1]         151,872
         Sigmoid-135           [-1, 1344, 1, 1]               0
        SEModule-136         [-1, 1344, 18, 18]               0
           ReLU6-137         [-1, 1344, 18, 18]               0
          Conv2d-138          [-1, 256, 18, 18]         344,064
        Identity-139          [-1, 256, 18, 18]               0
        Identity-140          [-1, 256, 18, 18]               0
  BatchNormAct2d-141          [-1, 256, 18, 18]             512
     ConvNormAct-142          [-1, 256, 18, 18]               0
LinearBottleneck-143          [-1, 256, 18, 18]               0
          Conv2d-144         [-1, 1536, 18, 18]         393,216
        Identity-145         [-1, 1536, 18, 18]               0
            SiLU-146         [-1, 1536, 18, 18]               0
  BatchNormAct2d-147         [-1, 1536, 18, 18]           3,072
     ConvNormAct-148         [-1, 1536, 18, 18]               0
          Conv2d-149         [-1, 1536, 18, 18]          13,824
        Identity-150         [-1, 1536, 18, 18]               0
        Identity-151         [-1, 1536, 18, 18]               0
  BatchNormAct2d-152         [-1, 1536, 18, 18]           3,072
     ConvNormAct-153         [-1, 1536, 18, 18]               0
          Conv2d-154            [-1, 128, 1, 1]         196,736
     BatchNorm2d-155            [-1, 128, 1, 1]             256
            ReLU-156            [-1, 128, 1, 1]               0
          Conv2d-157           [-1, 1536, 1, 1]         198,144
         Sigmoid-158           [-1, 1536, 1, 1]               0
        SEModule-159         [-1, 1536, 18, 18]               0
           ReLU6-160         [-1, 1536, 18, 18]               0
          Conv2d-161          [-1, 288, 18, 18]         442,368
        Identity-162          [-1, 288, 18, 18]               0
        Identity-163          [-1, 288, 18, 18]               0
  BatchNormAct2d-164          [-1, 288, 18, 18]             576
     ConvNormAct-165          [-1, 288, 18, 18]               0
LinearBottleneck-166          [-1, 288, 18, 18]               0
          Conv2d-167         [-1, 1728, 18, 18]         497,664
        Identity-168         [-1, 1728, 18, 18]               0
            SiLU-169         [-1, 1728, 18, 18]               0
  BatchNormAct2d-170         [-1, 1728, 18, 18]           3,456
     ConvNormAct-171         [-1, 1728, 18, 18]               0
          Conv2d-172         [-1, 1728, 18, 18]          15,552
        Identity-173         [-1, 1728, 18, 18]               0
        Identity-174         [-1, 1728, 18, 18]               0
  BatchNormAct2d-175         [-1, 1728, 18, 18]           3,456
     ConvNormAct-176         [-1, 1728, 18, 18]               0
          Conv2d-177            [-1, 144, 1, 1]         248,976
     BatchNorm2d-178            [-1, 144, 1, 1]             288
            ReLU-179            [-1, 144, 1, 1]               0
          Conv2d-180           [-1, 1728, 1, 1]         250,560
         Sigmoid-181           [-1, 1728, 1, 1]               0
        SEModule-182         [-1, 1728, 18, 18]               0
           ReLU6-183         [-1, 1728, 18, 18]               0
          Conv2d-184          [-1, 320, 18, 18]         552,960
        Identity-185          [-1, 320, 18, 18]               0
        Identity-186          [-1, 320, 18, 18]               0
  BatchNormAct2d-187          [-1, 320, 18, 18]             640
     ConvNormAct-188          [-1, 320, 18, 18]               0
LinearBottleneck-189          [-1, 320, 18, 18]               0
          Conv2d-190         [-1, 1920, 18, 18]         614,400
        Identity-191         [-1, 1920, 18, 18]               0
            SiLU-192         [-1, 1920, 18, 18]               0
  BatchNormAct2d-193         [-1, 1920, 18, 18]           3,840
     ConvNormAct-194         [-1, 1920, 18, 18]               0
          Conv2d-195         [-1, 1920, 18, 18]          17,280
        Identity-196         [-1, 1920, 18, 18]               0
        Identity-197         [-1, 1920, 18, 18]               0
  BatchNormAct2d-198         [-1, 1920, 18, 18]           3,840
     ConvNormAct-199         [-1, 1920, 18, 18]               0
          Conv2d-200            [-1, 160, 1, 1]         307,360
     BatchNorm2d-201            [-1, 160, 1, 1]             320
            ReLU-202            [-1, 160, 1, 1]               0
          Conv2d-203           [-1, 1920, 1, 1]         309,120
         Sigmoid-204           [-1, 1920, 1, 1]               0
        SEModule-205         [-1, 1920, 18, 18]               0
           ReLU6-206         [-1, 1920, 18, 18]               0
          Conv2d-207          [-1, 352, 18, 18]         675,840
        Identity-208          [-1, 352, 18, 18]               0
        Identity-209          [-1, 352, 18, 18]               0
  BatchNormAct2d-210          [-1, 352, 18, 18]             704
     ConvNormAct-211          [-1, 352, 18, 18]               0
LinearBottleneck-212          [-1, 352, 18, 18]               0
          Conv2d-213         [-1, 2112, 18, 18]         743,424
        Identity-214         [-1, 2112, 18, 18]               0
            SiLU-215         [-1, 2112, 18, 18]               0
  BatchNormAct2d-216         [-1, 2112, 18, 18]           4,224
     ConvNormAct-217         [-1, 2112, 18, 18]               0
          Conv2d-218         [-1, 2112, 18, 18]          19,008
        Identity-219         [-1, 2112, 18, 18]               0
        Identity-220         [-1, 2112, 18, 18]               0
  BatchNormAct2d-221         [-1, 2112, 18, 18]           4,224
     ConvNormAct-222         [-1, 2112, 18, 18]               0
          Conv2d-223            [-1, 176, 1, 1]         371,888
     BatchNorm2d-224            [-1, 176, 1, 1]             352
            ReLU-225            [-1, 176, 1, 1]               0
          Conv2d-226           [-1, 2112, 1, 1]         373,824
         Sigmoid-227           [-1, 2112, 1, 1]               0
        SEModule-228         [-1, 2112, 18, 18]               0
           ReLU6-229         [-1, 2112, 18, 18]               0
          Conv2d-230          [-1, 384, 18, 18]         811,008
        Identity-231          [-1, 384, 18, 18]               0
        Identity-232          [-1, 384, 18, 18]               0
  BatchNormAct2d-233          [-1, 384, 18, 18]             768
     ConvNormAct-234          [-1, 384, 18, 18]               0
LinearBottleneck-235          [-1, 384, 18, 18]               0
          Conv2d-236         [-1, 2304, 18, 18]         884,736
        Identity-237         [-1, 2304, 18, 18]               0
            SiLU-238         [-1, 2304, 18, 18]               0
  BatchNormAct2d-239         [-1, 2304, 18, 18]           4,608
     ConvNormAct-240         [-1, 2304, 18, 18]               0
          Conv2d-241           [-1, 2304, 9, 9]          20,736
        Identity-242           [-1, 2304, 9, 9]               0
        Identity-243           [-1, 2304, 9, 9]               0
  BatchNormAct2d-244           [-1, 2304, 9, 9]           4,608
     ConvNormAct-245           [-1, 2304, 9, 9]               0
          Conv2d-246            [-1, 192, 1, 1]         442,560
     BatchNorm2d-247            [-1, 192, 1, 1]             384
            ReLU-248            [-1, 192, 1, 1]               0
          Conv2d-249           [-1, 2304, 1, 1]         444,672
         Sigmoid-250           [-1, 2304, 1, 1]               0
        SEModule-251           [-1, 2304, 9, 9]               0
           ReLU6-252           [-1, 2304, 9, 9]               0
          Conv2d-253            [-1, 416, 9, 9]         958,464
        Identity-254            [-1, 416, 9, 9]               0
        Identity-255            [-1, 416, 9, 9]               0
  BatchNormAct2d-256            [-1, 416, 9, 9]             832
     ConvNormAct-257            [-1, 416, 9, 9]               0
LinearBottleneck-258            [-1, 416, 9, 9]               0
          Conv2d-259           [-1, 2496, 9, 9]       1,038,336
        Identity-260           [-1, 2496, 9, 9]               0
            SiLU-261           [-1, 2496, 9, 9]               0
  BatchNormAct2d-262           [-1, 2496, 9, 9]           4,992
     ConvNormAct-263           [-1, 2496, 9, 9]               0
          Conv2d-264           [-1, 2496, 9, 9]          22,464
        Identity-265           [-1, 2496, 9, 9]               0
        Identity-266           [-1, 2496, 9, 9]               0
  BatchNormAct2d-267           [-1, 2496, 9, 9]           4,992
     ConvNormAct-268           [-1, 2496, 9, 9]               0
          Conv2d-269            [-1, 208, 1, 1]         519,376
     BatchNorm2d-270            [-1, 208, 1, 1]             416
            ReLU-271            [-1, 208, 1, 1]               0
          Conv2d-272           [-1, 2496, 1, 1]         521,664
         Sigmoid-273           [-1, 2496, 1, 1]               0
        SEModule-274           [-1, 2496, 9, 9]               0
           ReLU6-275           [-1, 2496, 9, 9]               0
          Conv2d-276            [-1, 448, 9, 9]       1,118,208
        Identity-277            [-1, 448, 9, 9]               0
        Identity-278            [-1, 448, 9, 9]               0
  BatchNormAct2d-279            [-1, 448, 9, 9]             896
     ConvNormAct-280            [-1, 448, 9, 9]               0
LinearBottleneck-281            [-1, 448, 9, 9]               0
          Conv2d-282           [-1, 2688, 9, 9]       1,204,224
        Identity-283           [-1, 2688, 9, 9]               0
            SiLU-284           [-1, 2688, 9, 9]               0
  BatchNormAct2d-285           [-1, 2688, 9, 9]           5,376
     ConvNormAct-286           [-1, 2688, 9, 9]               0
          Conv2d-287           [-1, 2688, 9, 9]          24,192
        Identity-288           [-1, 2688, 9, 9]               0
        Identity-289           [-1, 2688, 9, 9]               0
  BatchNormAct2d-290           [-1, 2688, 9, 9]           5,376
     ConvNormAct-291           [-1, 2688, 9, 9]               0
          Conv2d-292            [-1, 224, 1, 1]         602,336
     BatchNorm2d-293            [-1, 224, 1, 1]             448
            ReLU-294            [-1, 224, 1, 1]               0
          Conv2d-295           [-1, 2688, 1, 1]         604,800
         Sigmoid-296           [-1, 2688, 1, 1]               0
        SEModule-297           [-1, 2688, 9, 9]               0
           ReLU6-298           [-1, 2688, 9, 9]               0
          Conv2d-299            [-1, 480, 9, 9]       1,290,240
        Identity-300            [-1, 480, 9, 9]               0
        Identity-301            [-1, 480, 9, 9]               0
  BatchNormAct2d-302            [-1, 480, 9, 9]             960
     ConvNormAct-303            [-1, 480, 9, 9]               0
LinearBottleneck-304            [-1, 480, 9, 9]               0
          Conv2d-305           [-1, 2880, 9, 9]       1,382,400
        Identity-306           [-1, 2880, 9, 9]               0
            SiLU-307           [-1, 2880, 9, 9]               0
  BatchNormAct2d-308           [-1, 2880, 9, 9]           5,760
     ConvNormAct-309           [-1, 2880, 9, 9]               0
          Conv2d-310           [-1, 2880, 9, 9]          25,920
        Identity-311           [-1, 2880, 9, 9]               0
        Identity-312           [-1, 2880, 9, 9]               0
  BatchNormAct2d-313           [-1, 2880, 9, 9]           5,760
     ConvNormAct-314           [-1, 2880, 9, 9]               0
          Conv2d-315            [-1, 240, 1, 1]         691,440
     BatchNorm2d-316            [-1, 240, 1, 1]             480
            ReLU-317            [-1, 240, 1, 1]               0
          Conv2d-318           [-1, 2880, 1, 1]         694,080
         Sigmoid-319           [-1, 2880, 1, 1]               0
        SEModule-320           [-1, 2880, 9, 9]               0
           ReLU6-321           [-1, 2880, 9, 9]               0
          Conv2d-322            [-1, 528, 9, 9]       1,520,640
        Identity-323            [-1, 528, 9, 9]               0
        Identity-324            [-1, 528, 9, 9]               0
  BatchNormAct2d-325            [-1, 528, 9, 9]           1,056
     ConvNormAct-326            [-1, 528, 9, 9]               0
LinearBottleneck-327            [-1, 528, 9, 9]               0
          Conv2d-328           [-1, 3168, 9, 9]       1,672,704
        Identity-329           [-1, 3168, 9, 9]               0
            SiLU-330           [-1, 3168, 9, 9]               0
  BatchNormAct2d-331           [-1, 3168, 9, 9]           6,336
     ConvNormAct-332           [-1, 3168, 9, 9]               0
          Conv2d-333           [-1, 3168, 9, 9]          28,512
        Identity-334           [-1, 3168, 9, 9]               0
        Identity-335           [-1, 3168, 9, 9]               0
  BatchNormAct2d-336           [-1, 3168, 9, 9]           6,336
     ConvNormAct-337           [-1, 3168, 9, 9]               0
          Conv2d-338            [-1, 272, 1, 1]         861,968
     BatchNorm2d-339            [-1, 272, 1, 1]             544
            ReLU-340            [-1, 272, 1, 1]               0
          Conv2d-341           [-1, 3168, 1, 1]         864,864
         Sigmoid-342           [-1, 3168, 1, 1]               0
        SEModule-343           [-1, 3168, 9, 9]               0
           ReLU6-344           [-1, 3168, 9, 9]               0
          Conv2d-345            [-1, 560, 9, 9]       1,774,080
        Identity-346            [-1, 560, 9, 9]               0
        Identity-347            [-1, 560, 9, 9]               0
  BatchNormAct2d-348            [-1, 560, 9, 9]           1,120
     ConvNormAct-349            [-1, 560, 9, 9]               0
LinearBottleneck-350            [-1, 560, 9, 9]               0
          Conv2d-351           [-1, 3840, 9, 9]       2,150,400
        Identity-352           [-1, 3840, 9, 9]               0
            SiLU-353           [-1, 3840, 9, 9]               0
  BatchNormAct2d-354           [-1, 3840, 9, 9]           7,680
     ConvNormAct-355           [-1, 3840, 9, 9]               0
AdaptiveAvgPool2d-356           [-1, 3840, 1, 1]               0
         Flatten-357                 [-1, 3840]               0
SelectAdaptivePool2d-358                 [-1, 3840]               0
         Dropout-359                 [-1, 3840]               0
          Linear-360                    [-1, 4]          15,364
        Identity-361                    [-1, 4]               0
  ClassifierHead-362                    [-1, 4]               0
================================================================
Total params: 30,984,372
Trainable params: 30,984,372
Non-trainable params: 0
----------------------------------------------------------------
Input size (MB): 0.95
Forward/backward pass size (MB): 1561.06
Params size (MB): 118.20
Estimated Total Size (MB): 1680.20
----------------------------------------------------------------
…
